…
+       "Downloading (…)\"pytorch_model.bin\";:   0%|          | 0.00/438M [00:00<?, ?B/s]"
       ]
      },
      "metadata": {},
@@ -165,59 +176,484 @@
     },
     {
      "data": {
-      "application/vnd.jupyter.widget-view+json": {
-       "model_id": "b2a27ce9f3b4471b9f122b56e5d12440",
-       "version_major": 2,
-       "version_minor": 0
-      },
       "text/plain": [
-       "Downloading (…)/main/tokenizer.json:   0%|          | 0.00/1.36M [00:00<?, ?B/s]"
+       "BertForSequenceClassification(\n",
+       "  (bert): BertModel(\n",
+       "    (embeddings): BertEmbeddings(\n",
+       "      (word_embeddings): Embedding(30522, 768, padding_idx=0)\n",
+       "      (position_embeddings): Embedding(512, 768)\n",
+       "      (token_type_embeddings): Embedding(2, 768)\n",
+       "      (LayerNorm): LayerNorm((768,), eps=1e-12, elementwise_affine=True)\n",
+       "      (dropout): Dropout(p=0.1, inplace=False)\n",
+       "    )\n",
+       "    (encoder): BertEncoder(\n",
+       "      (layer): ModuleList(\n",
+       "        (0): BertLayer(\n",
+       "          (attention): BertAttention(\n",
+       "            (self): BertSelfAttention(\n",
+       "              (query): Linear(in_features=768, out_features=768, bias=True)\n",
+       "              (key): Linear(in_features=768, out_features=768, bias=True)\n",
+       "              (value): Linear(in_features=768, out_features=768, bias=True)\n",
+       "              (dropout): Dropout(p=0.1, inplace=False)\n",
+       "            )\n",
+       "            (output): BertSelfOutput(\n",
+       "              (dense): Linear(in_features=768, out_features=768, bias=True)\n",
+       "              (LayerNorm): LayerNorm((768,), eps=1e-12, elementwise_affine=True)\n",
+       "              (dropout): Dropout(p=0.1, inplace=False)\n",
+       "            )\n",
+       "          )\n",
+       "          (intermediate): BertIntermediate(\n",
+       "            (dense): Linear(in_features=768, out_features=3072, bias=True)\n",
+       "            (intermediate_act_fn): GELUActivation()\n",
+       "          )\n",
+       "          (output): BertOutput(\n",
+       "            (dense): Linear(in_features=3072, out_features=768, bias=True)\n",
+       "            (LayerNorm): LayerNorm((768,), eps=1e-12, elementwise_affine=True)\n",
+       "            (dropout): Dropout(p=0.1, inplace=False)\n",
+       "          )\n",
+       "        )\n",
+       "        (1): BertLayer(\n",
+       "          (attention): BertAttention(\n",
+       "            (self): BertSelfAttention(\n",
+       "              (query): Linear(in_features=768, out_features=768, bias=True)\n",
+       "              (key): Linear(in_features=768, out_features=768, bias=True)\n",
+       "              (value): Linear(in_features=768, out_features=768, bias=True)\n",
+       "              (dropout): Dropout(p=0.1, inplace=False)\n",
+       "            )\n",
+       "            (output): BertSelfOutput(\n",
+       "              (dense): Linear(in_features=768, out_features=768, bias=True)\n",
+       "              (LayerNorm): LayerNorm((768,), eps=1e-12, elementwise_affine=True)\n",
+       "              (dropout): Dropout(p=0.1, inplace=False)\n",
+       "            )\n",
+       "          )\n",
+       "          (intermediate): BertIntermediate(\n",
+       "            (dense): Linear(in_features=768, out_features=3072, bias=True)\n",
+       "            (intermediate_act_fn): GELUActivation()\n",
+       "          )\n",
+       "          (output): BertOutput(\n",
+       "            (dense): Linear(in_features=3072, out_features=768, bias=True)\n",
+       "            (LayerNorm): LayerNorm((768,), eps=1e-12, elementwise_affine=True)\n",
+       "            (dropout): Dropout(p=0.1, inplace=False)\n",
+       "          )\n",
+       "        )\n",
+       "        (2): BertLayer(\n",
+       "          (attention): BertAttention(\n",
+       "            (self): BertSelfAttention(\n",
+       "              (query): Linear(in_features=768, out_features=768, bias=True)\n",
+       "              (key): Linear(in_features=768, out_features=768, bias=True)\n",
+       "              (value): Linear(in_features=768, out_features=768, bias=True)\n",
+       "              (dropout): Dropout(p=0.1, inplace=False)\n",
+       "            )\n",
+       "            (output): BertSelfOutput(\n",
+       "              (dense): Linear(in_features=768, out_features=768, bias=True)\n",
+       "              (LayerNorm): LayerNorm((768,), eps=1e-12, elementwise_affine=True)\n",
+       "              (dropout): Dropout(p=0.1, inplace=False)\n",
+       "            )\n",
+       "          )\n",
+       "          (intermediate): BertIntermediate(\n",
+       "            (dense): Linear(in_features=768, out_features=3072, bias=True)\n",
+       "            (intermediate_act_fn): GELUActivation()\n",
+       "          )\n",
+       "          (output): BertOutput(\n",
+       "            (dense): Linear(in_features=3072, out_features=768, bias=True)\n",
+       "            (LayerNorm): LayerNorm((768,), eps=1e-12, elementwise_affine=True)\n",
+       "            (dropout): Dropout(p=0.1, inplace=False)\n",
+       "          )\n",
+       "        )\n",
+       "        (3): BertLayer(\n",
+       "          (attention): BertAttention(\n",
+       "            (self): BertSelfAttention(\n",
+       "              (query): Linear(in_features=768, out_features=768, bias=True)\n",
+       "              (key): Linear(in_features=768, out_features=768, bias=True)\n",
+       "              (value): Linear(in_features=768, out_features=768, bias=True)\n",
+       "              (dropout): Dropout(p=0.1, inplace=False)\n",
+       "            )\n",
+       "            (output): BertSelfOutput(\n",
+       "              (dense): Linear(in_features=768, out_features=768, bias=True)\n",
+       "              (LayerNorm): LayerNorm((768,), eps=1e-12, elementwise_affine=True)\n",
+       "              (dropout): Dropout(p=0.1, inplace=False)\n",
+       "            )\n",
+       "          )\n",
+       "          (intermediate): BertIntermediate(\n",
+       "            (dense): Linear(in_features=768, out_features=3072, bias=True)\n",
+       "            (intermediate_act_fn): GELUActivation()\n",
+       "          )\n",
+       "          (output): BertOutput(\n",
+       "            (dense): Linear(in_features=3072, out_features=768, bias=True)\n",
+       "            (LayerNorm): LayerNorm((768,), eps=1e-12, elementwise_affine=True)\n",
+       "            (dropout): Dropout(p=0.1, inplace=False)\n",
+       "          )\n",
+       "        )\n",
+       "        (4): BertLayer(\n",
+       "          (attention): BertAttention(\n",
+       "            (self): BertSelfAttention(\n",
+       "              (query): Linear(in_features=768, out_features=768, bias=True)\n",
+       "              (key): Linear(in_features=768, out_features=768, bias=True)\n",
+       "              (value): Linear(in_features=768, out_features=768, bias=True)\n",
+       "              (dropout): Dropout(p=0.1, inplace=False)\n",
+       "            )\n",
+       "            (output): BertSelfOutput(\n",
+       "              (dense): Linear(in_features=768, out_features=768, bias=True)\n",
+       "              (LayerNorm): LayerNorm((768,), eps=1e-12, elementwise_affine=True)\n",
+       "              (dropout): Dropout(p=0.1, inplace=False)\n",
+       "            )\n",
+       "          )\n",
+       "          (intermediate): BertIntermediate(\n",
+       "            (dense): Linear(in_features=768, out_features=3072, bias=True)\n",
+       "            (intermediate_act_fn): GELUActivation()\n",
+       "          )\n",
+       "          (output): BertOutput(\n",
+       "            (dense): Linear(in_features=3072, out_features=768, bias=True)\n",
+       "            (LayerNorm): LayerNorm((768,), eps=1e-12, elementwise_affine=True)\n",
+       "            (dropout): Dropout(p=0.1, inplace=False)\n",
+       "          )\n",
+       "        )\n",
+       "        (5): BertLayer(\n",
+       "          (attention): BertAttention(\n",
+       "            (self): BertSelfAttention(\n",
+       "              (query): Linear(in_features=768, out_features=768, bias=True)\n",
+       "              (key): Linear(in_features=768, out_features=768, bias=True)\n",
+       "              (value): Linear(in_features=768, out_features=768, bias=True)\n",
+       "              (dropout): Dropout(p=0.1, inplace=False)\n",
+       "            )\n",
+       "            (output): BertSelfOutput(\n",
+       "              (dense): Linear(in_features=768, out_features=768, bias=True)\n",
+       "              (LayerNorm): LayerNorm((768,), eps=1e-12, elementwise_affine=True)\n",
+       "              (dropout): Dropout(p=0.1, inplace=False)\n",
+       "            )\n",
+       "          )\n",
+       "          (intermediate): BertIntermediate(\n",
+       "            (dense): Linear(in_features=768, out_features=3072, bias=True)\n",
+       "            (intermediate_act_fn): GELUActivation()\n",
+       "          )\n",
+       "          (output): BertOutput(\n",
+       "            (dense): Linear(in_features=3072, out_features=768, bias=True)\n",
+       "            (LayerNorm): LayerNorm((768,), eps=1e-12, elementwise_affine=True)\n",
+       "            (dropout): Dropout(p=0.1, inplace=False)\n",
+       "          )\n",
+       "        )\n",
+       "        (6): BertLayer(\n",
+       "          (attention): BertAttention(\n",
+       "            (self): BertSelfAttention(\n",
+       "              (query): Linear(in_features=768, out_features=768, bias=True)\n",
+       "              (key): Linear(in_features=768, out_features=768, bias=True)\n",
+       "              (value): Linear(in_features=768, out_features=768, bias=True)\n",
+       "              (dropout): Dropout(p=0.1, inplace=False)\n",
+       "            )\n",
+       "            (output): BertSelfOutput(\n",
+       "              (dense): Linear(in_features=768, out_features=768, bias=True)\n",
+       "              (LayerNorm): LayerNorm((768,), eps=1e-12, elementwise_affine=True)\n",
+       "              (dropout): Dropout(p=0.1, inplace=False)\n",
+       "            )\n",
+       "          )\n",
+       "          (intermediate): BertIntermediate(\n",
+       "            (dense): Linear(in_features=768, out_features=3072, bias=True)\n",
+       "            (intermediate_act_fn): GELUActivation()\n",
+       "          )\n",
+       "          (output): BertOutput(\n",
+       "            (dense): Linear(in_features=3072, out_features=768, bias=True)\n",
+       "            (LayerNorm): LayerNorm((768,), eps=1e-12, elementwise_affine=True)\n",
+       "            (dropout): Dropout(p=0.1, inplace=False)\n",
+       "          )\n",
+       "        )\n",
+       "        (7): BertLayer(\n",
+       "          (attention): BertAttention(\n",
+       "            (self): BertSelfAttention(\n",
+       "              (query): Linear(in_features=768, out_features=768, bias=True)\n",
+       "              (key): Linear(in_features=768, out_features=768, bias=True)\n",
+       "              (value): Linear(in_features=768, out_features=768, bias=True)\n",
+       "              (dropout): Dropout(p=0.1, inplace=False)\n",
+       "            )\n",
+       "            (output): BertSelfOutput(\n",
+       "              (dense): Linear(in_features=768, out_features=768, bias=True)\n",
+       "              (LayerNorm): LayerNorm((768,), eps=1e-12, elementwise_affine=True)\n",
+       "              (dropout): Dropout(p=0.1, inplace=False)\n",
+       "            )\n",
+       "          )\n",
+       "          (intermediate): BertIntermediate(\n",
+       "            (dense): Linear(in_features=768, out_features=3072, bias=True)\n",
+       "            (intermediate_act_fn): GELUActivation()\n",
+       "          )\n",
+       "          (output): BertOutput(\n",
+       "            (dense): Linear(in_features=3072, out_features=768, bias=True)\n",
+       "            (LayerNorm): LayerNorm((768,), eps=1e-12, elementwise_affine=True)\n",
+       "            (dropout): Dropout(p=0.1, inplace=False)\n",
+       "          )\n",
+       "        )\n",
+       "        (8): BertLayer(\n",
+       "          (attention): BertAttention(\n",
+       "            (self): BertSelfAttention(\n",
+       "              (query): Linear(in_features=768, out_features=768, bias=True)\n",
+       "              (key): Linear(in_features=768, out_features=768, bias=True)\n",
+       "              (value): Linear(in_features=768, out_features=768, bias=True)\n",
+       "              (dropout): Dropout(p=0.1, inplace=False)\n",
+       "            )\n",
+       "            (output): BertSelfOutput(\n",
+       "              (dense): Linear(in_features=768, out_features=768, bias=True)\n",
+       "              (LayerNorm): LayerNorm((768,), eps=1e-12, elementwise_affine=True)\n",
+       "              (dropout): Dropout(p=0.1, inplace=False)\n",
+       "            )\n",
+       "          )\n",
+       "          (intermediate): BertIntermediate(\n",
+       "            (dense): Linear(in_features=768, out_features=3072, bias=True)\n",
+       "            (intermediate_act_fn): GELUActivation()\n",
+       "          )\n",
+       "          (output): BertOutput(\n",
+       "            (dense): Linear(in_features=3072, out_features=768, bias=True)\n",
+       "            (LayerNorm): LayerNorm((768,), eps=1e-12, elementwise_affine=True)\n",
+       "            (dropout): Dropout(p=0.1, inplace=False)\n",
+       "          )\n",
+       "        )\n",
+       "        (9): BertLayer(\n",
+       "          (attention): BertAttention(\n",
+       "            (self): BertSelfAttention(\n",
+       "              (query): Linear(in_features=768, out_features=768, bias=True)\n",
+       "              (key): Linear(in_features=768, out_features=768, bias=True)\n",
+       "              (value): Linear(in_features=768, out_features=768, bias=True)\n",
+       "              (dropout): Dropout(p=0.1, inplace=False)\n",
+       "            )\n",
+       "            (output): BertSelfOutput(\n",
+       "              (dense): Linear(in_features=768, out_features=768, bias=True)\n",
+       "              (LayerNorm): LayerNorm((768,), eps=1e-12, elementwise_affine=True)\n",
+       "              (dropout): Dropout(p=0.1, inplace=False)\n",
+       "            )\n",
+       "          )\n",
+       "          (intermediate): BertIntermediate(\n",
+       "            (dense): Linear(in_features=768, out_features=3072, bias=True)\n",
+       "            (intermediate_act_fn): GELUActivation()\n",
+       "          )\n",
+       "          (output): BertOutput(\n",
+       "            (dense): Linear(in_features=3072, out_features=768, bias=True)\n",
+       "            (LayerNorm): LayerNorm((768,), eps=1e-12, elementwise_affine=True)\n",
+       "            (dropout): Dropout(p=0.1, inplace=False)\n",
+       "          )\n",
+       "        )\n",
+       "        (10): BertLayer(\n",
+       "          (attention): BertAttention(\n",
+       "            (self): BertSelfAttention(\n",
+       "              (query): Linear(in_features=768, out_features=768, bias=True)\n",
+       "              (key): Linear(in_features=768, out_features=768, bias=True)\n",
+       "              (value): Linear(in_features=768, out_features=768, bias=True)\n",
+       "              (dropout): Dropout(p=0.1, inplace=False)\n",
+       "            )\n",
+       "            (output): BertSelfOutput(\n",
+       "              (dense): Linear(in_features=768, out_features=768, bias=True)\n",
+       "              (LayerNorm): LayerNorm((768,), eps=1e-12, elementwise_affine=True)\n",
+       "              (dropout): Dropout(p=0.1, inplace=False)\n",
+       "            )\n",
+       "          )\n",
+       "          (intermediate): BertIntermediate(\n",
+       "            (dense): Linear(in_features=768, out_features=3072, bias=True)\n",
+       "            (intermediate_act_fn): GELUActivation()\n",
+       "          )\n",
+       "          (output): BertOutput(\n",
+       "            (dense): Linear(in_features=3072, out_features=768, bias=True)\n",
+       "            (LayerNorm): LayerNorm((768,), eps=1e-12, elementwise_affine=True)\n",
+       "            (dropout): Dropout(p=0.1, inplace=False)\n",
+       "          )\n",
+       "        )\n",
+       "        (11): BertLayer(\n",
+       "          (attention): BertAttention(\n",
+       "            (self): BertSelfAttention(\n",
+       "              (query): Linear(in_features=768, out_features=768, bias=True)\n",
+       "              (key): Linear(in_features=768, out_features=768, bias=True)\n",
+       "              (value): Linear(in_features=768, out_features=768, bias=True)\n",
+       "              (dropout): Dropout(p=0.1, inplace=False)\n",
+       "            )\n",
+       "            (output): BertSelfOutput(\n",
+       "              (dense): Linear(in_features=768, out_features=768, bias=True)\n",
+       "              (LayerNorm): LayerNorm((768,), eps=1e-12, elementwise_affine=True)\n",
+       "              (dropout): Dropout(p=0.1, inplace=False)\n",
+       "            )\n",
+       "          )\n",
+       "          (intermediate): BertIntermediate(\n",
+       "            (dense): Linear(in_features=768, out_features=3072, bias=True)\n",
+       "            (intermediate_act_fn): GELUActivation()\n",
+       "          )\n",
+       "          (output): BertOutput(\n",
+       "            (dense): Linear(in_features=3072, out_features=768, bias=True)\n",
+       "            (LayerNorm): LayerNorm((768,), eps=1e-12, elementwise_affine=True)\n",
+       "            (dropout): Dropout(p=0.1, inplace=False)\n",
+       "          )\n",
+       "        )\n",
+       "      )\n",
+       "    )\n",
+       "    (pooler): BertPooler(\n",
+       "      (dense): Linear(in_features=768, out_features=768, bias=True)\n",
+       "      (activation): Tanh()\n",
+       "    )\n",
+       "  )\n",
+       "  (dropout): Dropout(p=0.1, inplace=False)\n",
+       "  (classifier): Linear(in_features=768, out_features=2, bias=True)\n",
+       ")"
       ]
      },
+     "execution_count": 21,
      "metadata": {},
-     "output_type": "display_data"
+     "output_type": "execute_result"
+    }
+   ],
+   "source": [
+    "from transformers import AutoTokenizer, AutoModelForSequenceClassification\n",
+    "\n",
+    "# model_name = \"roberta-base-openai-detector\" 0.65525\n",
+    "# model_name = \"priyabrat/New_AI_or_Humantext_categorisation\" 0.591\n",
…
